…
    "- `plot_model()`: plots your graph in a nice layout. You can even save it as \".png\" using SVG() if you'd like to share it on social media ;). It is saved in \"File\" then \"Open...\" in the upper bar of the notebook.\n",
    "\n",
    "Run the following code."
   ]
  },
  {
   "cell_type": "code",
   "execution_count": 36,
   "metadata": {
    "scrolled": false
   },
   "outputs": [
    {
     "name": "stdout",
     "output_type": "stream",
     "text": [
      "_________________________________________________________________\n",
      "Layer (type)                 Output Shape              Param #   \n",
      "=================================================================\n",
      "input_6 (InputLayer)         (None, 64, 64, 3)         0         \n",
      "_________________________________________________________________\n",
      "zero_padding2d_6 (ZeroPaddin (None, 70, 70, 3)         0         \n",
      "_________________________________________________________________\n",
      "conv0 (Conv2D)               (None, 64, 64, 32)        4736      \n",
      "_________________________________________________________________\n",
      "bn0 (BatchNormalization)     (None, 64, 64, 32)        128       \n",
      "_________________________________________________________________\n",
      "activation_2 (Activation)    (None, 64, 64, 32)        0         \n",
      "_________________________________________________________________\n",
      "max_pool (MaxPooling2D)      (None, 32, 32, 32)        0         \n",
      "_________________________________________________________________\n",
      "flatten_2 (Flatten)          (None, 32768)             0         \n",
      "_________________________________________________________________\n",
      "fc (Dense)                   (None, 1)                 32769     \n",
      "=================================================================\n",
      "Total params: 37,633\n",
      "Trainable params: 37,569\n",
      "Non-trainable params: 64\n",
      "_________________________________________________________________\n"
     ]
    }
   ],
   "source": [
    "happyModel.summary()"
   ]
  },
  {
   "cell_type": "code",
   "execution_count": 37,
   "metadata": {},
…
